…
el_id":"87dba407037140f98625ee90be330121"}},"metadata":{}}]},{"cell_type":"code","source":["model"],"metadata":{"colab":{"base_uri":"https://localhost:8080/"},"id":"otyFLVCzDTGK","executionInfo":{"status":"ok","timestamp":1681094825452,"user_tz":-480,"elapsed":482,"user":{"displayName":"蔡琇鈞","userId":"06728559442076792620"}},"outputId":"759df604-5fab-4ac0-dd0b-ee22594c1d9b"},"id":"otyFLVCzDTGK","execution_count":null,"outputs":[{"output_type":"execute_result","data":{"text/plain":["EncoderDecoderModel(\n","  (encoder): BertModel(\n","    (embeddings): BertEmbeddings(\n","      (word_embeddings): Embedding(30522, 768, padding_idx=0)\n","      (position_embeddings): Embedding(512, 768)\n","      (token_type_embeddings): Embedding(2, 768)\n","      (LayerNorm): LayerNorm((768,), eps=1e-12, elementwise_affine=True)\n","      (dropout): Dropout(p=0.1, inplace=False)\n","    )\n","    (encoder): BertEncoder(\n","      (layer): ModuleList(\n","        (0-11): 12 x BertLayer(\n","          (attention): BertAttention(\n","            (self): BertSelfAttention(\n","              (query): Linear(in_features=768, out_features=768, bias=True)\n","              (key): Linear(in_features=768, out_features=768, bias=True)\n","              (value): Linear(in_features=768, out_features=768, bias=True)\n","              (dropout): Dropout(p=0.1, inplace=False)\n","            )\n","            (output): BertSelfOutput(\n","              (dense): Linear(in_features=768, out_features=768, bias=True)\n","              (LayerNorm): LayerNorm((768,), eps=1e-12, elementwise_affine=True)\n","              (dropout): Dropout(p=0.1, inplace=False)\n","            )\n","          )\n","          (intermediate): BertIntermediate(\n","            (dense): Linear(in_features=768, out_features=3072, bias=True)\n","            (intermediate_act_fn): GELUActivation()\n","          )\n","          (output): BertOutput(\n","            (dense): Linear(in_features=3072, out_features=768, bias=True)\n","            (LayerNorm): LayerNorm((768,), eps=1e-12, elementwise_affine=True)\n","            (dropout): Dropout(p=0.1, inplace=False)\n","          )\n","        )\n","      )\n","    )\n","    (pooler): BertPooler(\n","      (dense): Linear(in_features=768, out_features=768, bias=True)\n","      (activation): Tanh()\n","    )\n","  )\n","  (decoder): BertLMHeadModel(\n","    (bert): BertModel(\n","      (embeddings): BertEmbeddings(\n","        (word_embeddings): Embedding(30522, 768, padding_idx=0)\n","        (position_embeddings): Embedding(512, 768)\n","        (token_type_embeddings): Embedding(2, 768)\n","        (LayerNorm): LayerNorm((768,), eps=1e-12, elementwise_affine=True)\n","        (dropout): Dropout(p=0.1, inplace=False)\n","      )\n","      (encoder): BertEncoder(\n","        (layer): ModuleList(\n","          (0-11): 12 x BertLayer(\n","            (attention): BertAttention(\n","              (self): BertSelfAttention(\n","                (query): Linear(in_features=768, out_features=768, bias=True)\n","                (key): Linear(in_features=768, out_features=768, bias=True)\n","                (value): Linear(in_features=768, out_features=768, bias=True)\n","                (dropout): Dropout(p=0.1, inplace=False)\n","              )\n","              (output): BertSelfOutput(\n","                (dense): Linear(in_features=768, out_features=768, bias=True)\n","                (LayerNorm): LayerNorm((768,), eps=1e-12, elementwise_affine=True)\n","                (dropout): Dropout(p=0.1, inplace=False)\n","              )\n","            )\n","            (crossattention): BertAttention(\n","              (self): BertSelfAttention(\n","                (query): Linear(in_features=768, out_features=768, bias=True)\n","                (key): Linear(in_features=768, out_features=768, bias=True)\n","                (value): Linear(in_features=768, out_features=768, bias=True)\n","                (dropout): Dropout(p=0.1, inplace=False)\n","              )\n","              (output): BertSelfOutput(\n","                (dense): Linear(in_features=768, out_features=768, bias=True)\n","                (LayerNorm): LayerNorm((768,), eps=1e-12, elementwise_affine=True)\n","                (dropout): Dropout(p=0.1, inplace=False)\n","              )\n","            )\n","            (intermediate): BertIntermediate(\n","              (dense): Linear(in_features=768, out_features=3072, bias=True)\n","              (intermediate_act_fn): GELUActivation()\n","            )\n","            (output): BertOutput(\n","              (dense): Linear(in_features=3072, out_features=768, bias=True)\n","              (LayerNorm): LayerNorm((768,), eps=1e-12, elementwise_affine=True)\n","              (dropout): Dropout(p=0.1, inplace=False)\n","            )\n","          )\n","        )\n","      )\n","    )\n","    (cls): BertOnlyMLMHead(\n","      (predictions): BertLMPredictionHead(\n","        (transform): BertPredictionHeadTransform(\n","          (dense): Linear(in_features=768, out_features=768, bias=True)\n","          (transform_act_fn): GELUActivation()\n","          (LayerNorm): LayerNorm((768,), eps=1e-12, elementwise_affine=True)\n","        )\n","        (decoder): Linear(in_features=768, out_features=30522, bias=True)\n","      )\n","    )\n","  )\n",")"]},"metadata":{},"execution_count":9}]},{"cell_type":"code","source":["## You can custom your optimizer ##\n","# we use Adam here\n","optimizer = torch.optim.Adam(model.parameters(), lr=parameters['learning_rate'], betas=(0.9, 0.98), eps=1e-9)"],"metadata":{"id":"VwowZcCnSeUw"},"id":"VwowZcCnSeUw","execution_count"
…
